Found 343132 images belonging to 2 classes.
Found 2070 images belonging to 2 classes.
Model: "sequential"
_________________________________________________________________
 Layer (type)                Output Shape              Param #
=================================================================
 resnet50v2 (Functional)     (None, 2, 2, 2048)        23564800

 global_max_pooling2d (Glob  (None, 2048)              0
 alMaxPooling2D)

 batch_normalization (Batch  (None, 2048)              8192
 Normalization)

 dropout (Dropout)           (None, 2048)              0

 dense (Dense)               (None, 1)                 2049

=================================================================
Total params: 23575041 (89.93 MB)
Trainable params: 23525505 (89.74 MB)
Non-trainable params: 49536 (193.50 KB)
_________________________________________________________________
Epoch 1/45
WARNING:tensorflow:From C:\Users\ignsz\AppData\Local\Programs\Python\Python311\Lib\site-packages\keras\src\utils\tf_utils.py:492: The name tf.ragged.RaggedTensorValue is deprecated. Please use tf.compat.v1.ragged.RaggedTensorValue instead.
…
300/300 [==============================] - 144s 479ms/step - loss: 0.3510 - accuracy: 0.8533 - val_loss: 0.1788 - val_accuracy: 0.9367 - lr: 1.0000e-06
Epoch 30/45
300/300 [==============================] - 144s 481ms/step - loss: 0.3490 - accuracy: 0.8551 - val_loss: 0.1762 - val_accuracy: 0.9386 - lr: 1.0000e-06
Found 2000 images belonging to 2 classes.
32/32 [==============================] - 8s 216ms/step
Found 343132 images belonging to 2 classes.
Found 2070 images belonging to 2 classes.
Model: "sequential_3"
_________________________________________________________________
 Layer (type)                Output Shape              Param #
=================================================================
 vgg16 (Functional)          (None, 1, 1, 512)         14714688

 global_max_pooling2d_3 (Gl  (None, 512)               0
 obalMaxPooling2D)

 batch_normalization_3 (Bat  (None, 512)               2048
 chNormalization)

 dropout_3 (Dropout)         (None, 512)               0

 dense_3 (Dense)             (None, 1)                 513

=================================================================
Total params: 14717249 (56.14 MB)
Trainable params: 14716225 (56.14 MB)
Non-trainable params: 1024 (4.00 KB)
_________________________________________________________________
Epoch 1/45
300/300 [==============================] - 182s 600ms/step - loss: 0.5050 - accuracy: 0.7577 - val_loss: 1.2827 - val_accuracy: 0.5498 - lr: 1.0000e-04
…
300/300 [==============================] - 178s 593ms/step - loss: 0.3522 - accuracy: 0.8521 - val_loss: 0.1969 - val_accuracy: 0.9251 - lr: 1.0000e-05
Epoch 22/45
300/300 [==============================] - 178s 593ms/step - loss: 0.3689 - accuracy: 0.8425 - val_loss: 0.3741 - val_accuracy: 0.8386 - lr: 1.0000e-05
Found 2000 images belonging to 2 classes.
32/32 [==============================] - 10s 297ms/step
Found 343132 images belonging to 2 classes.
Found 2070 images belonging to 2 classes.
Model: "sequential_6"
_________________________________________________________________
 Layer (type)                Output Shape              Param #
=================================================================
 densenet169 (Functional)    (None, 1, 1, 1664)        12642880

 global_max_pooling2d_6 (Gl  (None, 1664)              0
 obalMaxPooling2D)

 batch_normalization_6 (Bat  (None, 1664)              6656
 chNormalization)

 dropout_6 (Dropout)         (None, 1664)              0

 dense_6 (Dense)             (None, 1)                 1665

=================================================================
Total params: 12651201 (48.26 MB)
Trainable params: 12489473 (47.64 MB)
Non-trainable params: 161728 (631.75 KB)
_________________________________________________________________
Epoch 1/45
300/300 [==============================] - 132s 332ms/step - loss: 0.5267 - accuracy: 0.7681 - val_loss: 0.3117 - val_accuracy: 0.8918 - lr: 1.0000e-04
…
Found 2000 images belonging to 2 classes.
32/32 [==============================] - 8s 173ms/step
WARNING:tensorflow:`input_shape` is undefined or non-square, or `rows` is not in [96, 128, 160, 192, 224]. Weights for input shape (224, 224) will be loaded as the default.
Found 343132 images belonging to 2 classes.
Found 2070 images belonging to 2 classes.
Model: "sequential_9"
_________________________________________________________________
 Layer (type)                Output Shape              Param #
=================================================================
 mobilenetv2_1.00_224 (Func  (None, 2, 2, 1280)        2257984
 tional)

 global_max_pooling2d_9 (Gl  (None, 1280)              0
 obalMaxPooling2D)

 batch_normalization_9 (Bat  (None, 1280)              5120
 chNormalization)

 dropout_9 (Dropout)         (None, 1280)              0

 dense_9 (Dense)             (None, 1)                 1281

=================================================================
Total params: 2264385 (8.64 MB)
Trainable params: 2227713 (8.50 MB)
Non-trainable params: 36672 (143.25 KB)
_________________________________________________________________
Epoch 1/45
300/300 [==============================] - 50s 134ms/step - loss: 0.7098 - accuracy: 0.6777 - val_loss: 1.0331 - val_accuracy: 0.5087 - lr: 1.0000e-04
…
300/300 [==============================] - 38s 126ms/step - loss: 0.3921 - accuracy: 0.8301 - val_loss: 0.2223 - val_accuracy: 0.9237 - lr: 1.0000e-06
Epoch 29/45
300/300 [==============================] - 38s 127ms/step - loss: 0.3824 - accuracy: 0.8396 - val_loss: 0.2223 - val_accuracy: 0.9237 - lr: 1.0000e-06
Found 2000 images belonging to 2 classes.
32/32 [==============================] - 4s 109ms/step
Found 343132 images belonging to 2 classes.
Found 2070 images belonging to 2 classes.
Model: "sequential_12"
_________________________________________________________________
 Layer (type)                Output Shape              Param #
=================================================================
 efficientnetv2-m (Function  (None, 2, 2, 1280)        53150388
 al)

 global_max_pooling2d_12 (G  (None, 1280)              0
 lobalMaxPooling2D)

 batch_normalization_12 (Ba  (None, 1280)              5120
 tchNormalization)

 dropout_12 (Dropout)        (None, 1280)              0

 dense_12 (Dense)            (None, 1)                 1281

=================================================================
Total params: 53156789 (202.78 MB)
Trainable params: 52862197 (201.65 MB)
Non-trainable params: 294592 (1.12 MB)
_________________________________________________________________
Epoch 1/45
300/300 [==============================] - 458s 1s/step - loss: 0.6396 - accuracy: 0.7074 - val_loss: 0.3329 - val_accuracy: 0.8889 - lr: 1.0000e-04
…
32/32 [==============================] - 19s 430ms/step
Downloading data from https://storage.googleapis.com/tensorflow/keras-applications/resnet/resnet152v2_weights_tf_dim_ordering_tf_kernels_notop.h5
234545216/234545216 [==============================] - 8s 0us/step
Found 343132 images belonging to 2 classes.
Found 2070 images belonging to 2 classes.
Model: "sequential_15"
_________________________________________________________________
 Layer (type)                Output Shape              Param #
=================================================================
 resnet152v2 (Functional)    (None, 2, 2, 2048)        58331648

 global_max_pooling2d_15 (G  (None, 2048)              0
 lobalMaxPooling2D)

 batch_normalization_15 (Ba  (None, 2048)              8192
 tchNormalization)

 dropout_15 (Dropout)        (None, 2048)              0

 dense_15 (Dense)            (None, 1)                 2049

=================================================================
Total params: 58341889 (222.56 MB)
Trainable params: 58194049 (221.99 MB)
Non-trainable params: 147840 (577.50 KB)
_________________________________________________________________
Epoch 1/45
300/300 [==============================] - 415s 1s/step - loss: 0.6897 - accuracy: 0.6409 - val_loss: 0.9136 - val_accuracy: 0.8010 - lr: 1.0000e-04
…
